…
or predictions and inference.\n","output_type":"stream"}],"execution_count":15},{"cell_type":"code","source":"roberta_go_emotions_model","metadata":{"trusted":true,"execution":{"iopub.status.busy":"2025-02-04T07:52:47.643103Z","iopub.execute_input":"2025-02-04T07:52:47.643482Z","iopub.status.idle":"2025-02-04T07:52:47.651471Z","shell.execute_reply.started":"2025-02-04T07:52:47.643453Z","shell.execute_reply":"2025-02-04T07:52:47.650251Z"}},"outputs":[{"execution_count":16,"output_type":"execute_result","data":{"text/plain":"RobertaModel(\n  (embeddings): RobertaEmbeddings(\n    (word_embeddings): Embedding(50265, 768, padding_idx=1)\n    (position_embeddings): Embedding(514, 768, padding_idx=1)\n    (token_type_embeddings): Embedding(1, 768)\n    (LayerNorm): LayerNorm((768,), eps=1e-05, elementwise_affine=True)\n    (dropout): Dropout(p=0.1, inplace=False)\n  )\n  (encoder): RobertaEncoder(\n    (layer): ModuleList(\n      (0-11): 12 x RobertaLayer(\n        (attention): RobertaAttention(\n          (self): RobertaSdpaSelfAttention(\n            (query): Linear(in_features=768, out_features=768, bias=True)\n            (key): Linear(in_features=768, out_features=768, bias=True)\n            (value): Linear(in_features=768, out_features=768, bias=True)\n            (dropout): Dropout(p=0.1, inplace=False)\n          )\n          (output): RobertaSelfOutput(\n            (dense): Linear(in_features=768, out_features=768, bias=True)\n            (LayerNorm): LayerNorm((768,), eps=1e-05, elementwise_affine=True)\n            (dropout): Dropout(p=0.1, inplace=False)\n          )\n        )\n        (intermediate): RobertaIntermediate(\n          (dense): Linear(in_features=768, out_features=3072, bias=True)\n          (intermediate_act_fn): GELUActivation()\n        )\n        (output): RobertaOutput(\n          (dense): Linear(in_features=3072, out_features=768, bias=True)\n          (LayerNorm): LayerNorm((768,), eps=1e-05, elementwise_affine=True)\n          (dropout): Dropout(p=0.1, inplace=False)\n        )\n      )\n    )\n  )\n  (pooler): RobertaPooler(\n    (dense): Linear(in_features=768, out_features=768, bias=True)\n    (activation): Tanh()\n  )\n)"},"metadata":{}}],"execution_count":16},{"cell_type":"code","source":"# 헤드에 없는 모델을 목적에 의해 불러오기\nroberta_classification_model = AutoModelForSequenceClassification.from_pretrained('klue/roberta-base')\n","metadata":{"trusted":true,"execution":{"iopub.status.busy":"2025-02-04T07:53:28.472018Z","iopub.execute_input":"2025-
…
}],"execution_count":20},{"cell_type":"code","source":"roberta_classification_model","metadata":{"trusted":true,"execution":{"iopub.status.busy":"2025-02-04T07:53:30.727216Z","iopub.execute_input":"2025-02-04T07:53:30.727613Z","iopub.status.idle":"2025-02-04T07:53:30.735953Z","shell.execute_reply.started":"2025-02-04T07:53:30.727584Z","shell.execute_reply":"2025-02-04T07:53:30.734831Z"}},"outputs":[{"execution_count":21,"output_type":"execute_result","data":{"text/plain":"RobertaForSequenceClassification(\n  (roberta): RobertaModel(\n    (embeddings): RobertaEmbeddings(\n      (word_embeddings): Embedding(32000, 768, padding_idx=1)\n      (position_embeddings): Embedding(514, 768, padding_idx=1)\n      (token_type_embeddings): Embedding(1, 768)\n      (LayerNorm): LayerNorm((768,), eps=1e-05, elementwise_affine=True)\n      (dropout): Dropout(p=0.1, inplace=False)\n    )\n    (encoder): RobertaEncoder(\n      (layer): ModuleList(\n        (0-11): 12 x RobertaLayer(\n          (attention): RobertaAttention(\n            (self): RobertaSdpaSelfAttention(\n              (query): Linear(in_features=768, out_features=768, bias=True)\n              (key): Linear(in_features=768, out_features=768, bias=True)\n              (value): Linear(in_features=768, out_features=768, bias=True)\n              (dropout): Dropout(p=0.1, inplace=False)\n            )\n            (output): RobertaSelfOutput(\n              (dense): Linear(in_features=768, out_features=768, bias=True)\n              (LayerNorm): LayerNorm((768,), eps=1e-05, elementwise_affine=True)\n              (dropout): Dropout(p=0.1, inplace=False)\n            )\n          )\n          (intermediate): RobertaIntermediate(\n            (dense): Linear(in_features=768, out_features=3072, bias=True)\n            (intermediate_act_fn): GELUActivation()\n          )\n          (output): RobertaOutput(\n            (dense): Linear(in_features=3072, out_features=768, bias=True)\n            (LayerNorm): LayerNorm((768,), eps=1e-05, elementwise_affine=True)\n            (dropout): Dropout(p=0.1, inplace=False)\n          )\n        )\n      )\n    )\n  )\n  (classifier): RobertaClassificationHead(\n    (dense): Linear(in_features=768, out_features=768, bias=True)\n    (dropout): Dropout(p=0.1, inplace=False)\n    (out_proj): Linear(in_features=768, out_features=2, bias=True)\n  )\n)"},"metadata":{}}],"execution_count":21},{"cell_type":"code","source":"","metadata":{"trusted":true},"outputs":[],"execution_count":null}]}